BU_DeepRL_Workshop_Day2/runs/cartpole1.pt (torch, 273556 bytes, 9 tensors)

fc1.weight f4 [128, 4]
0	0x3dc79dbe	0.09746884
1	0xbd20d04a	-0.03926114
2	0xbf0c835b	-0.5488793
3	0x3dae583e	0.085129246
4	0x3ed8dc23	0.4235545
5	0xbe2a6d50	-0.16643262
6	0xbe0cbc32	-0.13743666
7	0xbcd3601b	-0.025802663
8	0x3f4aa26d	0.7915409
9	0xbe8d25ca	-0.27567893
10	0xbf7c7f05	-0.98631316
11	0xbeb06bfb	-0.34457383
12	0x3f29ad9d	0.6628054
13	0x3e7e523d	0.24836059
14	0xbf796bc1	-0.97430044
15	0xbe9f0682	-0.31059653
16	0xbefe8fa8	-0.49718976
17	0x3de7f071	0.113251574
18	0xbbabd7fc	-0.005244253
19	0xbe80645e	-0.25076574
20	0xbea7eb47	-0.3279669
21	0x3ec3e193	0.38258037
22	0xbca3a9ba	-0.019978393
23	0x3d519ac3	0.051172983
24	0x3e724a86	0.23661241
25	0xbecaed9a	-0.396344
26	0xbf854c14	-1.0413842
27	0xbf07584c	-0.52869105
28	0x3ef3f911	0.4765096
29	0xbf00e486	-0.503487
30	0xbf33237c	-0.6997602
31	0xbf184a5a	-0.5948845
32	0x3ce06fa7	0.02739699
33	0x3e5437ac	0.20724362
34	0x3f9e6792	1.2375357
35	0x3ebde40e	0.37088054
36	0xbd21bbb4	-0.03948565
37	0x3ef22eda	0.4730137
38	0x3f5925f5	0.8482354
39	0x3e9f0482	0.31058127
40	0x3e0b1ec0	0.13585949
41	0xbeab0a6c	-0.3340639
42	0x3def2303	0.116766
43	0xbebb8ca5	-0.3663074
44	0xbe03b224	-0.12860924
45	0xbf0ada0d	-0.5423897
46	0xbf93a7d6	-1.1535594
47	0xbe3458e3	-0.17612033
48	0xbe032c87	-0.12809955
49	0xbf1aaa3b	-0.60416
50	0xbfd3e52b	-1.6554312
51	0xbf108c67	-0.56464237
52	0x3e39c0a8	0.18139899
53	0x3ae4011c	0.001739535
54	0x3f9b9698	1.2155333
55	0x3ecddbc3	0.40206727
56	0x3e744bd2	0.23857048
57	0x3f42c951	0.76088434
58	0x3fb91e4f	1.4462374
59	0x3f1611b7	0.5862078
60	0xbdc4737e	-0.09592341
61	0x3e4b1edd	0.19835992
62	0xbd4ad65d	-0.04952084
63	0x3e20d716	0.15707049
64	0xbd460328	-0.048342854
65	0xbebb575a	-0.3659008
66	0xbf1ef7bd	-0.6209677
67	0x3e0b2fab	0.13592403
68	0xbc0d0468	-0.008607008
69	0x3e9e4fd0	0.30920267
70	0xbd110b1e	-0.035410993
71	0x3e989994	0.2980467
72	0x3e9d99e4	0.30781472
73	0x3e650901	0.22366716
74	0x3fa9f026	1.3276412
75	0x3f308c2a	0.68963873
76	0x3e4793c3	0.1948996
77	0xbe8afe59	-0.27147177
78	0xbf5121bc	-0.816921
79	0x3e59ab0b	0.21256654
80	0xbf4aa9c1	-0.79165274
81	0x3e6fb9b7	0.23410688
82	0x3f8ba799	1.0910522
83	0x3e3bfea4	0.18358856
84	0x3cb6bc7f	0.022306679
85	0x3e6e350a	0.2326242
86	0x3f717447	0.9431805
87	0x3f06bedc	0.5263498
88	0x3dce32dd	0.10068295
89	0xbeffc820	-0.4995737
90	0xbed30a79	-0.41218928
91	0x3cf18114	0.029480495
92	0x3e413026	0.18866023
93	0xbe7587a7	-0.23977529
94	0xbeca423c	-0.39503658
95	0xbec390f2	-0.38196522
96	0x3dfe9702	0.12431146
97	0xbe93407c	-0.28760135
98	0xbf06930e	-0.5256814
99	0x3dd6a516	0.104807064
100	0xbe810548	-0.25199342
101	0xbde5b3ab	-0.112159096
102	0xbebdcd9d	-0.37070933
103	0x3d7a9e58	0.061186165
104	0xbed81c60	-0.42209148
105	0xbc4a44e1	-0.012345524
106	0xbfa836ef	-1.3141764
107	0xbf375c38	-0.7162509
108	0xbea58be5	-0.32333294
109	0x3eac26f6	0.33623475
110	0x3f62fc4c	0.88666224
111	0x3f15c58b	0.5850455
112	0x3f61acb9	0.8815418
113	0x3ec4b876	0.38421983
114	0xbf966301	-1.1748964
115	0x3e52e5cf	0.20595478
116	0xbe0915bf	-0.13387202
117	0xbe207ded	-0.15673037
118	0xbdca5140	-0.098787785
119	0xbebb1d3d	-0.36545745
120	0x3db4e626	0.0883296
121	0x3cf83d0b	0.030302545
122	0x3eadd721	0.33953193
123	0x3e143fd2	0.1447747
124	0x3d16c2a4	0.036806718
125	0xbe68d0d0	-0.22735906
126	0xbedd2fdb	-0.43200573
127	0xbec367d5	-0.38165155
128	0xbeacc1e2	-0.3374167
129	0x3f01e195	0.50734836
130	0xb97d52fa	-0.00024158871
131	0x3d5b578c	0.053550288
132	0x3dde9337	0.10867923
133	0xbcd0e378	-0.02549909
134	0xbe871095	-0.2637984
135	0xbd00cd36	-0.031445704
136	0xbecaffea	-0.39648372
137	0x3eb6c8bc	0.35700023
138	0x3d4ee088	0.0505071
139	0x3e63af26	0.22234783
140	0x3ebe78b7	0.37201473
141	0xbeda291d	-0.42609492
142	0xbf90e88e	-1.132097
143	0xbf0a2197	-0.53957504
144	0xbf5425c4	-0.82870126
145	0x3e63b0d7	0.22235428
146	0x3fb12c50	1.3841648
147	0x3ed185ea	0.4092248
148	0x3e369b02	0.17832568
149	0xbd714f47	-0.058913495
150	0x3ed4c41a	0.41555864
151	0x3dbf80dd	0.093507506
152	0xbf183273	-0.5945198
153	0x3f366fb2	0.71264184
154	0x3f598354	0.84966016
155	0x3f2c2b31	0.67253405
156	0xbe91bd33	-0.2846466
157	0xbf375f19	-0.7162948
158	0xbfb67ec0	-1.4257431
159	0xbf0d69b3	-0.5523941
160	0xbe57b4f7	-0.21065126
161	0xbf3bd7ee	-0.7337636
162	0xbfc6b476	-1.5523822
163	0xbefcd987	-0.4938471
164	0xbebbb91f	-0.36664674
165	0xbea13094	-0.31482375
166	0x3e1fc01b	0.15600626
167	0xbea1623e	-0.31520265
168	0xbeac6508	-0.3367083
169	0xbd0434da	-0.032276966
170	0x3e44c3a2	0.19215253
171	0x3ccceb72	0.025014613
172	0x3d979b10	0.07402623
173	0x3eb27e54	0.34862006
174	0x3e2e8c46	0.17045698
175	0x3eae8938	0.34089065
176	0xbda76a8a	-0.081746176
177	0x3f320b2c	0.69548297
178	0x3f966031	1.1748105
179	0x3ef86d30	0.48520803
180	0xbe18acf8	-0.14909732
181	0xbe8de623	-0.27714643
182	0xbe1643c5	-0.1467429
183	0xbdf7edcb	-0.12105902
184	0x3eb1018a	0.34571487
185	0xbeb86a0e	-0.36018413
186	0xbd514b1c	-0.05109702
187	0x3e00f5b5	0.1259373
188	0xbf1c2a14	-0.61001706
189	0x3f59b86f	0.8504705
190	0x3ea2bd0d	0.3178486
191	0x3b308dc3	0.0026939965
192	0x3ec7962f	0.38981768
193	0xbeda08c9	-0.42584828
194	0xbf5a6fc2	-0.8532678
195	0x3e004244	0.12525278
196	0xbf095093	-0.5363857
197	0xbeb1496a	-0.34626323
198	0x3f4d53b8	0.8020587
199	0x3ed4e77a	0.41582853
200	0xbe3157d3	-0.17318659
201	0xbea0a5df	-0.3137655
202	0x3e8429ab	0.2581304
203	0xbe7e2d24	-0.24821907
204	0x3e7c6f57	0.24651848
205	0x3d5bf27a	0.05369804
206	0xbd8ff800	-0.07029724
207	0xbe4d6513	-0.20058088
208	0x3f692c63	0.91083354
209	0xbc7a2f3b	-0.01527005
210	0xbfaa0b8e	-1.3284776
211	0xbe8dba52	-0.27681214
212	0x3af9d13f	0.0019059553
213	0xbe985fef	-0.29760692
214	0xbde716b1	-0.11283625
215	0xbe12f3db	-0.14350836
216	0x3e2eaba7	0.17057668
217	0x3f1c1811	0.6097422
218	0x3f841436	1.0318668
219	0x3f28cded	0.6593922
220	0x3dbf6623	0.09345653
221	0x3e47e676	0.19521508
222	0xbeb5ca6c	-0.35505998
223	0x3eaa74ac	0.3329214
224	0x3ef15353	0.47133884
225	0xbedacd31	-0.42734674
226	0x3dc09ed2	0.094052926
227	0xbe4f8881	-0.20266916
228	0x3edb9d2a	0.42893344
229	0xbe449d78	-0.19200695
230	0x3e8810bc	0.26575267
231	0xbe99bca1	-0.30026725
232	0xbee41d0e	-0.44553417
233	0xbe3dd5c7	-0.18538581
234	0x3f6c5d7e	0.9233016
235	0x3f0ed337	0.5579104
236	0x3e9171fa	0.2840727
237	0xbeee7d7d	-0.46580115
238	0xbec7203a	-0.38891774
239	0xbe818deb	-0.25303587
240	0x3e890690	0.2676282
241	0xbf0be159	-0.5464073
242	0xbf800d41	-1.0004045
243	0xbedaf2b4	-0.42763293
244	0xbe310d6b	-0.17290275
245	0x3ea898d1	0.3292909
246	0xbe7e1c5d	-0.24815507
247	0xbd20131c	-0.039080724
248	0x3e9db3d6	0.30801266
249	0x3cc5058e	0.0240505
250	0x3e00a79c	0.12563938
251	0x3cf5ebe8	0.030019715
252	0xbf18a8ac	-0.5963237
253	0xbe819f1f	-0.25316712
254	0x3faf794b	1.3708891
255	0x3eeaf6c1	0.45891383

fc1.bias f4 [128]
0	0x3f15d168	0.58522654
1	0x3edeea83	0.43538293
2	0x3f29f3b6	0.663875
3	0xbedeb49b	-0.43497166
4	0x3f0f2eae	0.559306
5	0x3f18fd80	0.5976181
6	0xbebdc245	-0.37062278
7	0xbec0ad6a	-0.37632304
8	0x3f3a0f65	0.7267974
9	0x3f0f0ecd	0.5588196
10	0x3ec607ab	0.38677725
11	0x3eba34f6	0.3636853
12	0xbe9526c8	-0.2913115
13	0xbee30468	-0.443393
14	0x3e109f25	0.14123209
15	0xbebf56a9	-0.37370804
16	0x3d8ffce7	0.07030659
17	0x3f04b2c4	0.51835275
18	0xbdecc250	-0.115605
19	0x3e7092f6	0.23493561
20	0x3f0698d6	0.5257696
21	0xbec6eaff	-0.38851163
22	0x3e90c599	0.28275755
23	0x3f18ec48	0.59735537
24	0x3f0d31f2	0.55154335
25	0x3f0d3b2a	0.551684
26	0xbe93c26d	-0.28859273
27	0xbeb1286d	-0.34601155
28	0x3d489321	0.048968438
29	0x3f1f24b5	0.62165385
30	0x3efb9a10	0.49140978
31	0x3f24d6cc	0.64390254
32	0x3ec9cf17	0.3941581
33	0x3f07e99a	0.5309082
34	0x3f20753f	0.62678903
35	0xbeabe54c	-0.33573377
36	0xbecaf2dd	-0.39638415
37	0x3efa3c6a	0.48874217
38	0xbeaba073	-0.3352085
39	0xbd946256	-0.072453186
40	0xbc8d22e7	-0.017228557
41	0x3efbe811	0.4920049
42	0xbedd98b8	-0.43280578
43	0x3f345a9a	0.70450747
44	0xbdc64eac	-0.09682974
45	0x3ed28b5e	0.41121954
46	0x3ed3d94f	0.4137673
47	0x3dffa6e6	0.12483005
48	0xbe2473d8	-0.16059816
49	0xbf12a5d6	-0.57284296
50	0x3e967002	0.2938233
51	0x3f28f5cc	0.66000056
52	0xbecd686f	-0.4011874
53	0x3ec3d5fb	0.38249192
54	0xbe83594d	-0.2565407
55	0x3f14e0d4	0.5815556
56	0x3ef9107a	0.48645383
57	0x3edd1aa8	0.431844
58	0x3e88c340	0.26711464
59	0x3eb84022	0.3598643
60	0x3f2b1104	0.6682284
61	0x3f17aaa5	0.5924476
62	0x3f11360f	0.5672311
63	0xbeaa68d4	-0.33283103
64	0x3f2e3b37	0.68059105
65	0xbef9de4a	-0.48802406
66	0xbec5e9d9	-0.38654974
67	0x3f26f0b4	0.65211034
68	0x3f1bb261	0.6081906
69	0x3d7b1163	0.06129588
70	0x3ed85489	0.42251995
71	0xbec24371	-0.3794208
72	0x3edd6327	0.4323971
73	0x3f198096	0.5996183
74	0x3e8f967b	0.28044495
75	0x3d84c776	0.06483357
76	0xbd006885	-0.031349678
77	0x3f0381a0	0.5136967
78	0xbe58a9b7	-0.21158491
79	0x3e475a20	0.19467974
80	0xbee1e745	-0.44121757
81	0x3f0b02f6	0.54301393
82	0x3c53b51f	0.012921601
83	0xbeaa1677	-0.33220264
84	0xbeb1d3a2	-0.34731776
85	0x3f12f35e	0.574026
86	0x3d80848b	0.062752806
87	0xbf13f0e4	-0.57789445
88	0xbe18ba80	-0.14914894
89	0x3f19b0da	0.6003548
90	0x3f10493c	0.56361747
91	0x3f2e5a43	0.6810648
92	0x3e29f8df	0.16598843
93	0xbeb3b780	-0.35100937
94	0xbdaafb03	-0.08348658
95	0x3e8429e3	0.25813207
96	0xbeaf242a	-0.34207278
97	0x3f0e6cec	0.5563495
98	0xbed1aa9f	-0.40950486
99	0xbe85258a	-0.26005203
100	0x3ef60049	0.48047093
101	0x3f196012	0.59912217
102	0xbf029340	-0.51005936
103	0x3eee17fd	0.46502677
104	0xbecb1261	-0.3966246
105	0x3f14a73d	0.58067685
106	0x3f1373ca	0.57598555
107	0xbdb32b61	-0.08748508
108	0x3d57a34b	0.052645963
109	0x3f28559a	0.6575562
110	0xbeb25c6a	-0.3483613
111	0x3f06d567	0.52669376
112	0xbe4cfdca	-0.20018688
113	0x3c860efb	0.016364565
114	0xbe8fee2c	-0.28111398
115	0x3dc73e29	0.09728653
116	0x3e8f5814	0.27996886
117	0x3f1ac34a	0.6045424
118	0xbeea485e	-0.45758337
119	0xbb6fd189	-0.0036593399
120	0x3f319e4a	0.69382155
121	0xbeb89a4b	-0.36055216
122	0xbeccd58e	-0.4000668
123	0x3f31ae7e	0.6940688
124	0x3d9c97dc	0.076461524
125	0x3ee63bf4	0.44967616
126	0x3f1377d7	0.57604736
127	0x3f0cd89a	0.5501801

fc1_value.weight f4 [256, 128]
0	0x3df3cc10	0.11904156
1	0x3de25019	0.11050434
2	0xbeaeb366	-0.34121245
3	0xbf12e14d	-0.5737503
4	0x3d7dea78	0.061991185
5	0x3cb289e1	0.021794261
6	0xbf4a08a8	-0.7891946
7	0xbf1fa527	-0.6236138
8	0xbeae1719	-0.34001997
9	0xbe21a7b7	-0.15786634
10	0x3d295e38	0.04134962
11	0xbf11c1bf	-0.5693626
12	0xbf868c52	-1.0511572
13	0xbf1b7040	-0.60718155
14	0xbf278b1f	-0.65446657
15	0x3d9b6f0c	0.0758954
16	0x3e34186f	0.17587446
17	0xbc656af5	-0.014002551
18	0xbecefee7	-0.4042885
19	0x3e205b06	0.15659723
20	0xbf5f1d69	-0.8715425
21	0xbf3fe4c8	-0.7495847
22	0x3dd0ddeb	0.101985775
23	0x3dad67d5	0.0846707
24	0x3dc30781	0.09522916
25	0x3db7b426	0.089699075
26	0xbeb2b888	-0.3490641
27	0xbea84eb7	-0.32872555
28	0xbf39e95a	-0.7262169
29	0x3d501765	0.05080356
30	0xbb8fb8c9	-0.004386042
31	0xbc224880	-0.009904981
32	0x3c91a091	0.01777676
33	0x3e1821e9	0.14856686
34	0x3daf9d2e	0.085749015
35	0xbeaf4267	-0.34230348
36	0xbf4e51d5	-0.80593616
37	0x3e033df8	0.12816608
38	0xbf357d54	-0.7089436
39	0xbf43f411	-0.7654429
40	0xbf73c59f	-0.9522342
41	0x3d707c51	0.058712307
42	0x3e6c1dae	0.23058197
43	0x3d9bc368	0.0760563
44	0xbf5f9b74	-0.8734658
45	0xbc8b3c72	-0.016996596
46	0xbd28ba1e	-0.04119312
47	0x3e4118cc	0.18857116
48	0x3f0a24d2	0.53962433
49	0xbf0764e2	-0.5288831
50	0x3d7c9877	0.06166884
51	0x3ced0466	0.028932761
52	0xbf32b13a	-0.69801676
53	0x3d909fa2	0.070616975
54	0xbf4f7994	-0.8104489
55	0x3d73bcae	0.05950611
56	0xbbbf6a4f	-0.0058415304
57	0x3da0ce36	0.078518316
58	0xbea40633	-0.3203598
59	0x3d28eeac	0.04124324
60	0xbf0a4a95	-0.54020053
61	0x3e21b39b	0.1579117
62	0x3d2c9dc5	0.04214265
63	0xbf0dfd8d	-0.5546501
64	0x3e163104	0.14667135
65	0xbf40117d	-0.75026685
66	0xbf286169	-0.65773636
67	0x3e1b1ce7	0.15147744
68	0xbc7b5843	-0.015340867
69	0xbc838a6b	-0.016057214
70	0x3c8280f7	0.015930636
71	0xbf0d3527	-0.5515923
72	0x3c20b291	0.009808199
73	0x3dd4d5f9	0.103923745
74	0x3d2d78bf	0.04235148
75	0x3d87b848	0.06626946
76	0xbf68156a	-0.90657675
77	0x3d86591b	0.06559964
78	0xbeb89572	-0.36051518
79	0x3db1d79b	0.086837016
80	0xbf0e4fef	-0.5559072
81	0x3ce57a08	0.02801229
82	0x3ea56f51	0.3231149
83	0xbf5692e6	-0.838179
84	0xbf1d8160	-0.61525536
85	0xbd381345	-0.04494025
86	0xbed22956	-0.41047162
87	0xbf096bf0	-0.53680325
88	0x3e141ecb	0.14464872
89	0xbbf3ac77	-0.007436331
90	0x3e02d964	0.1277824
91	0x3d70a2bf	0.058748957
92	0x3e853413	0.26016292
93	0xbf868a36	-1.0510929
94	0xbeacadd1	-0.3372636
95	0xbd007e4b	-0.031370442
96	0xbf1e0329	-0.6172357
97	0x3e06f7f2	0.13180521
98	0xbf28e411	-0.65973
99	0x3d2eb03d	0.042648543
100	0x38c28170	9.2747505e-05
101	0x3dfb47f4	0.12269583
102	0x3e608084	0.21924025
103	0x3d790ba8	0.060802132
104	0xbeb57296	-0.35438985
105	0x3d57b879	0.05266616
106	0x3e21e80f	0.1581118
107	0xbf597f9d	-0.8496035
108	0x3db969d5	0.09053389
109	0x3c5d34b9	0.01350134
110	0xbf55a49c	-0.834543
111	0x3d5002ea	0.05078403
112	0xbf343c32	-0.7040435
113	0x3e0edf07	0.13952266
114	0xbed0be5e	-0.4077024
115	0xbeee6737	-0.46563122
116	0xbcac1940	-0.021008134
117	0x3bd0540e	0.0063576763
118	0xbf4839eb	-0.78213376
119	0xbecf8249	-0.40529087
120	0x3c9080e3	0.017639583
121	0xbe79b71d	-0.24386258
122	0xbefcb545	-0.49357048
123	0x3da65ec1	0.081235416
124	0xbeb48d34	-0.3526398
125	0xbc83bee6	-0.016082238
126	0x3ce5078b	0.027957698
127	0xbe067a99	-0.13132705
128	0x3e91e5d3	0.28495654
129	0x3e824853	0.25445804
130	0xbe8b0023	-0.27148542
131	0xbf09e540	-0.5386543
132	0x3e820ced	0.25400487
133	0x3e9c54c0	0.3053341
134	0xbf4879a6	-0.7831062
135	0xbf22ace6	-0.6354507
136	0xbe191512	-0.14949444
137	0x3d9e7ed8	0.07739037
138	0x3e554660	0.20827627
139	0xbece76da	-0.40325052
140	0xbf5c4289	-0.86039025
141	0xbf22f54d	-0.6365555
142	0xbf0e9ff7	-0.55712837
143	0x3cc69f80	0.024245977
144	0x3e4aed98	0.19817197
145	0x3e2b9a7e	0.16758153
146	0xbed4fd5c	-0.41599548
147	0x3e3a810a	0.18213287
148	0xbede2fc8	-0.4339583
149	0xbf3f2bf6	-0.74676454
150	0x3e1d1a6c	0.1534211
151	0x3ea0ff01	0.31444553
152	0x3e8fedb2	0.28111035
153	0x3e885256	0.26625317
154	0xbea52345	-0.3225347
155	0xbecdcf12	-0.40197045
156	0xbf3be417	-0.7339491
157	0x3e7903cb	0.24317853
158	0x3e5ec445	0.21754558
159	0x3e985816	0.29754704
160	0x3e620d5f	0.22075413
161	0x3e3e0de4	0.18559986
162	0x3e6702dd	0.22559686
163	0xbe737e84	-0.2377873
164	0xbf2d8d21	-0.6779347
165	0x3e3004cb	0.17189328
166	0xbf2f9480	-0.6858597
167	0xbf095b26	-0.53654706
168	0xbf2c067c	-0.67197394
169	0x3e6259ac	0.2210452
170	0x3cda8b45	0.026677737
171	0x3e8d1a71	0.27559236
172	0xbf57f94e	-0.84364784
173	0x3e543b82	0.20725825
174	0x3dd00cb0	0.1015867
175	0x3e973da5	0.2953922
176	0x3eb540ab	0.354009
177	0xbe97fad0	-0.29683542
178	0x3e5febd7	0.2186731
179	0x3da95a1b	0.082691394
180	0xbf303624	-0.6883261
181	0x3e546689	0.20742239
182	0xbf6da3ca	-0.9282805
183	0x3e92a39b	0.28640446
184	0x3e5b1da3	0.21398024
185	0x3e6fc266	0.23414001
186	0xbdd8f9a4	-0.1059449
187	0x3e2fc6a3	0.17165618
188	0xbe4bfb56	-0.19920096
189	0x3e905fb7	0.28198025
190	0x3e5d8d95	0.2163604
191	0xbeaeec0f	-0.34164473
192	0x3e5d951b	0.2163891
193	0xbf3ded4c	-0.7419021
194	0xbf265eb5	-0.6498826
195	0x3eae71d4	0.3407122
196	0x3e148bca	0.1450645
197	0xbcd8e1bd	-0.026474828
198	0x3e50c947	0.20389281
199	0xbf01e5b2	-0.5074111
200	0x3e4f0a67	0.20218812
201	0x3e341255	0.17585118
202	0x3d6c0c86	0.05762913
203	0x3db56269	0.08856661
204	0xbf26169c	-0.6487825
205	0x3e648567	0.22316514
206	0xbe8a328b	-0.26991686
207	0x3e513a34	0.20432359
208	0xbf14b67b	-0.58090943
209	0x3e05ae3d	0.13054748
210	0x3eaa5afd	0.33272544
211	0xbf5433a4	-0.828913
212	0xbf424c56	-0.7589773
213	0x3e4209ae	0.18949005
214	0xbe8b9600	-0.27262878
215	0xbf121c5f	-0.5707454
216	0x3e230043	0.15918069
217	0x3e8c21e9	0.2736962
218	0x3e560b8c	0.20902842
219	0x3e8128a2	0.25226313
220	0x3ebcdc9e	0.36887068
221	0xbf8886a5	-1.066609
222	0xbed45a36	-0.41475075
223	0x3e6af447	0.22944747
224	0xbf2addb1	-0.66744524
225	0x3e98380f	0.2973027
226	0xbf316041	-0.69287497
227	0x3cfe41bb	0.031037202
228	0x3e4813c4	0.1953879
229	0x3ea95f89	0.330807
230	0x3e1af982	0.15134242
231	0x3e871188	0.26380563
232	0xbee5cfa8	-0.44884992
233	0x3ddac541	0.106821544
234	0x3e93190a	0.2873004
235	0xbf4aab66	-0.79167783
236	0x3e5188fc	0.20462412
237	0x3e5e424d	0.21704979
238	0xbf6034e4	-0.87580705
239	0x3d9a9207	0.07547384
240	0xbf038c94	-0.5138638
241	0xbc9cccb9	-0.019140588
242	0xbf000e8b	-0.5002219
243	0xbe7767ca	-0.24160686
244	0x3e413231	0.18866803
245	0x3dadb00d	0.08480845
246	0xbf5eae6c	-0.86984897
247	0xbe98c182	-0.29835135
248	0x3e877af9	0.26461008
249	0xbe14f33a	-0.14545909
250	0xbef33ac9	-0.47505787
251	0x3e5a902c	0.2134406
252	0xbd9616c5	-0.07328562
253	0x3e3ea8fa	0.18619147
254	0x3e2e7229	0.17035736
255	0x3e2c4fb8	0.16827285

fc1_value.bias f4 [256]
0	0x3b5be830	0.0033555143
1	0x3eb44de3	0.35215673
2	0xbb804b55	-0.0039152303
3	0x3d8aad14	0.06771293
4	0x3d4d3d6f	0.050107416
5	0xbd778da6	-0.06043782
6	0x3e95c3ef	0.29251048
7	0x3d2e2691	0.04251725
8	0xbc0a9619	-0.008458638
9	0x3c6feccd	0.01464386
10	0xbdee65a5	-0.11640481
11	0xbdd1b258	-0.102390945
12	0xbdb32ab2	-0.08748378
13	0x3e547862	0.20749047
14	0x3e6226d1	0.2208512
15	0x3d0ebda8	0.03484884
16	0xbde666e7	-0.11250096
17	0x3d791cef	0.06081861
18	0x3e2ff21c	0.17182201
19	0x3d8c0d1e	0.068384394
20	0xbd6ec434	-0.058292583
21	0x3d7b8290	0.06140381
22	0xbdb684c9	-0.089120455
23	0x3d688393	0.056766104
24	0x3cc5f1f5	0.024163226
25	0xbd06c785	-0.03290512
26	0x3bcc335c	0.0062317085
27	0xbd891dd4	-0.066951424
28	0xbd1cae01	-0.03825188
29	0x3d444110	0.04791361
30	0x3def2e43	0.116787456
31	0x3e97f4c7	0.29678938
32	0xbd9e5aae	-0.077321395
33	0x3d8e4571	0.06946839
34	0x3e2e12af	0.16999315
35	0x3d07fb85	0.033198852
36	0xbbd0d787	-0.006373349
37	0xbcb38d1f	-0.021917878
38	0x3c08689a	0.00832572
39	0x3dec087d	0.115250565
40	0x3dfa87de	0.12232946
41	0xbd8b1fbf	-0.067931645
42	0xbd43765f	-0.04772031
43	0xbcede579	-0.029040085
44	0xbce82243	-0.02833665
45	0x3dba1e83	0.09087851
46	0x3d2d6dfe	0.042341225
47	0xbb7c64cb	-0.0038512226
48	0xbd77d3cf	-0.06050473
49	0x3d55a687	0.052160766
50	0x3d64b49a	0.055836298
51	0x3d674caf	0.056469616
52	0x3e137841	0.14401342
53	0x3bdfb4d1	0.006826975
54	0x3e120984	0.14261442
55	0x3de699d3	0.112598084
56	0x3c188323	0.009308609
57	0x3eaa80ef	0.33301494
58	0x3d2ac54f	0.041692074
59	0x3dcbc8c7	0.099504046
60	0xbc112542	-0.008858981
61	0x3dbec770	0.093153834
62	0x3d672c85	0.05643894
63	0xbd15a8da	-0.036537983
64	0xbc3c3235	-0.01148658
65	0xbcbb9319	-0.02289729
66	0xbcf3586a	-0.029705245
67	0xbdbbc2ff	-0.09168052
68	0xbd8e3e1b	-0.069454394
69	0x3c52ad43	0.012858692
70	0x3df0a42a	0.11750062
71	0x3d7d02f7	0.061770406
72	0xbe001cdd	-0.1251101
73	0x3d882b7d	0.0664892
74	0x3c4d9735	0.012548258
75	0xbdbcb540	-0.09214258
76	0x3d5fc480	0.054630756
77	0xba92a428	-0.0011187838
78	0x3d22850b	0.03967766
79	0xbd128c94	-0.035778597
80	0x3c2acf35	0.010425379
81	0x3f2730de	0.6530894
82	0xbd1b36e9	-0.037894163
83	0xb9b24e88	-0.00034009316
84	0xbcb8f69a	-0.022578526
85	0x3e779b9d	0.24180456
86	0x3c22372d	0.00990085
87	0xbd1888af	-0.037239727
88	0x3ccce86f	0.025013177
89	0x3e0a0846	0.13479719
90	0x3c890093	0.016723907
91	0x3df5668f	0.11982452
92	0xbb077ab2	-0.0020672497
93	0x3c0860ef	0.008323892
94	0x3c22c596	0.0099348035
95	0xbccbfb72	-0.024900172
96	0xbc2c9ab1	-0.010534928
97	0x3c45fcd1	0.012084202
98	0xbd5afe88	-0.053465396
99	0xbe681663	-0.2266479
100	0xbd0bdb50	-0.0341447
101	0xbd8178d7	-0.063218765
102	0x3dbafd90	0.091303945
103	0xbd877deb	-0.06615814
104	0xbd2c6dbc	-0.04209684
105	0x3ca1ff92	0.019775186
106	0xbdd2b03e	-0.10287522
107	0x3d891218	0.06692904
108	0xbc7ddc3b	-0.015494402
109	0x3c81ec23	0.01585967
110	0xbc805540	-0.01566565
111	0xbc4c8d0f	-0.012484803
112	0x3e01aaf9	0.12662877
113	0x3d85955e	0.0652263
114	0xbb2e2283	-0.0026570864
115	0x3dfe9fc6	0.12432818
116	0xbd09fb05	-0.033686657
117	0xbd987596	-0.07444303
118	0xbdd83bb1	-0.1055826
119	0x3d72fdbe	0.05932402
120	0x3ca16da3	0.0197056
121	0x3c21d8c3	0.00987834
122	0xbc1f343a	-0.009717042
123	0x3bb149de	0.005410417
124	0x3d50a372	0.050937124
125	0x3c29e18e	0.010368718
126	0x3dfcfb64	0.123526365
127	0x3e130c72	0.14360216
128	0x3f502fd9	0.8132301
129	0x3d8671e2	0.0656469
130	0xbdcd1c83	-0.10015204
131	0x3d8f3ba5	0.06993798
132	0x3dc6cbed	0.097068645
133	0xbd5ee844	-0.054420725
134	0x3d32c940	0.04364896
135	0x3da2f200	0.07956314
136	0x3c68766c	0.01418839
137	0xbd0d4ccc	-0.034497067
138	0x3e4f2b8e	0.20231459
139	0xbd084d86	-0.033277057
140	0x3d18477a	0.03717754
141	0x3dfb505d	0.122711875
142	0xbdbf5bc1	-0.093436725
143	0xbcee6a20	-0.029103339
144	0x3e043209	0.12909712
145	0xbdbfda4a	-0.09367807
146	0xbb91affb	-0.0044460273
147	0xbdbc6ec5	-0.09200815
148	0xbd2ae752	-0.04172451
149	0xbc1e936f	-0.009678706
150	0x3dba6dba	0.0910296
151	0x3c7b4e7e	0.015338538
152	0xbbc127b3	-0.005894625
153	0x3e10eb0f	0.14152168
154	0xbda83ab9	-0.082143255
155	0x3e0e67e4	0.13906819
156	0x3c4265e9	0.011865118
157	0xbd4cade2	-0.049970515
158	0xbd0a568d	-0.033773948
159	0x3cc063c9	0.023485081
160	0x3bfb0b1f	0.007661238
161	0xbd7878b2	-0.06066198
162	0x3e1afc99	0.15135421
163	0xbd4cf370	-0.050036848
164	0x3d740e1c	0.05958377
165	0x3c7a6ad4	0.015284259
166	0x3d9ea4f3	0.07746305
167	0x3de4affe	0.1116638
168	0xbdc43fda	-0.09582491
169	0xbc90b6e5	-0.017665336
170	0x3d9111fe	0.0708351
171	0xbd8f53e6	-0.06998424
172	0x3dee182d	0.11625705
173	0x3c9fbb2b	0.019498428
174	0x3de4ad09	0.11165816
175	0x3e06a4b0	0.13148761
176	0x3a8cb599	0.0010735273
177	0xbd9df0f7	-0.07711976
178	0x3ec1e9f8	0.37873816
179	0x3ded0861	0.11573864
180	0xbdcbcd97	-0.099513225
181	0xbdaff17e	-0.08590983
182	0xbc54e6d6	-0.012994489
183	0x3d12b602	0.035818107
184	0x3cf173c0	0.02947414
185	0x3db3c520	0.08777833
186	0x3c952cd2	0.018209849
187	0xbdb48e05	-0.088161506
188	0x3d9299a6	0.07158212
189	0x3d758ba0	0.05994761
190	0x3baec73f	0.0053338106
191	0x3d8627d1	0.06550563
192	0x3a5d0a61	0.00084320275
193	0x3c2ad1bf	0.010425984
194	0x3da2dd9f	0.07952427
195	0x3d87f3f0	0.06638324
196	0xbcdf8f4b	-0.027290007
197	0xbd880cf7	-0.06643098
198	0xbc020050	-0.007934645
199	0x3cdcc704	0.026950367
200	0x3dc34209	0.095340796
201	0x3d997fc7	0.07495075
202	0xbd332e4f	-0.043745335
203	0xbd2ebf17	-0.042662706
204	0x3e9283cc	0.28616178
205	0xbd541aba	-0.0517833
206	0x3d984086	0.07434182
207	0x3dc5d6f5	0.096601404
208	0x3b5699d8	0.0032745507
209	0x3b933649	0.0044925553
210	0xbd9707a4	-0.07374504
211	0x3def1ff3	0.11676016
212	0xbd6394d7	-0.055561867
213	0xbcbfd429	-0.023416596
214	0xbd5f18d3	-0.054467034
215	0x3cdd42c0	0.027009368
216	0x3b5301ab	0.003219704
217	0xbd05527a	-0.03254936
218	0xbd8c058d	-0.06836996
219	0x3d30f7e6	0.043205164
220	0x3db1bbac	0.08678374
221	0x3d6a5ffa	0.057220437
222	0x3e023ce9	0.12718548
223	0x3d48068d	0.048834372
224	0x3b5b8473	0.0033495694
225	0x3d81dccd	0.063409425
226	0x3b048f4a	0.0020227008
227	0xbddca0c0	-0.10772848
228	0xbda80a39	-0.08205075
229	0x3c3f1640	0.01166302
230	0x3cb00456	0.021486443
231	0x3d57a929	0.052651558
232	0x3d070a84	0.032969013
233	0x3d68a785	0.056800384
234	0x3d719518	0.058980078
235	0x3e40121e	0.18756911
236	0x3c6ed986	0.014578229
237	0x3edb299c	0.42805183
238	0xbd6ac452	-0.057316132
239	0x3e28e71a	0.16494408
240	0x3e262da8	0.16228354
241	0x3e6110d1	0.21979071
242	0xbdc4a072	-0.09600915
243	0xbde175ef	-0.11008822
244	0xbd2e284c	-0.0425189
245	0x3e354226	0.17701015
246	0x3dbd630d	0.09247408
247	0x3b895fbf	0.004192322
248	0xbd3c740a	-0.0460091
249	0x3eb2c4bf	0.3491573
250	0xbddc8d46	-0.10769133
251	0x3d669366	0.056292914
252	0xbbb08fae	-0.0053882217
253	0x3d48c454	0.049015358
254	0x3db0f254	0.086399704
255	0x3dc0b8f5	0.09410278

value.weight f4 [1, 256]
0	0x3f37802d	0.71679956
1	0x3f34ed90	0.7067499
2	0x3f46d121	0.77662855
3	0xbc017824	-0.007902179
4	0xbc85fbda	-0.016355444
5	0x3d3fb53b	0.046803694
6	0x3f3f4021	0.7470723
7	0x3f3a5686	0.72788274
8	0x3f42a643	0.76034945
9	0xbcc7c8a9	-0.024387674
10	0xbc321e21	-0.010871441
11	0xbe39cd3e	-0.181447
12	0x3b653004	0.0034971246
13	0x3f220f3a	0.63304484
14	0x3fa033f3	1.2515854
15	0x3f3f3ad3	0.74699134
16	0xbf82c05c	-1.0214953
17	0x3c8a35bc	0.016871326
18	0x3f32b12d	0.698016
19	0x3f3c9a2b	0.7367274
20	0xbd3bc30e	-0.045840316
21	0x3f3388e8	0.7013078
22	0xbd292924	-0.041299
23	0x3d220ec0	0.039564848
24	0x3f3410c1	0.70338064
25	0xbcd90031	-0.02648935
26	0xbd358eeb	-0.04432575
27	0xbc08e653	-0.008355695
28	0xbcbe4981	-0.023228409
29	0xbd448d5c	-0.047986373
30	0x3f2bed8d	0.6715935
31	0x3f1f3007	0.6218266
32	0xbc97b784	-0.018520124
33	0xbc9eee02	-0.0194006
34	0x3f260529	0.64851624
35	0xbf0c88d7	-0.548963
36	0x3f41c1a0	0.75686073
37	0x3c86fcdc	0.016477995
38	0x3f343ccb	0.7040526
39	0x3f42048c	0.7578819
40	0x3f2ba313	0.67045707
41	0x3c6bf9e0	0.014402837
42	0xbcd3c970	-0.025852889
43	0x3f484f86	0.78246343
44	0xbd250466	-0.040287398
45	0x3f3d543b	0.7395665
46	0x3ba5f067	0.0050640586
47	0x3f2d5662	0.67709935
48	0xbd12b555	-0.035817463
49	0xbb43bf02	-0.0029868488
50	0x3f439311	0.7639628
51	0xbc9f1c66	-0.019422721
52	0x3f555d81	0.833458
53	0x3f4a8914	0.79115415
54	0x3f571545	0.8401683
55	0x3f44017c	0.76564765
56	0xbd29e2d3	-0.041476082
57	0x3f2d15cf	0.676114
58	0xbcdd47cb	-0.027011773
59	0x3f2f411e	0.68458736
60	0x3f482900	0.7818756
61	0x3f27bf45	0.6552623
62	0xbc6d282f	-0.014474913
63	0xbd15980d	-0.03652196
64	0xbcd7d48d	-0.02634647
65	0x3f36a121	0.71339613
66	0x3bc0bf90	0.005882211
67	0xbf810d29	-1.0082141
68	0xbcb618cc	-0.022228621
69	0xbc99e510	-0.018785983
70	0x3f434c35	0.7628816
71	0xbb387460	-0.0028145537
72	0xbf7e1e75	-0.99265224
73	0xbbd1747d	-0.0063920603
74	0x3c4807c4	0.012208883
75	0xbc37e26d	-0.011223418
76	0xbd0462b9	-0.03232071
77	0x3f29f3e7	0.6638779
78	0x3f4343f3	0.7627556
79	0x3a8d68f4	0.0010788725
80	0xbd2f5fc0	-0.042815924
81	0x3fb92028	1.4462938
82	0xbcabc42f	-0.020967571
83	0x3f39d808	0.7259526
84	0xbf949d00	-1.1610413
85	0x3f30e169	0.6909395
86	0xbd381766	-0.04494419
87	0xbcfa7301	-0.030572416
88	0x3f3acd6f	0.72969717
89	0x3f315384	0.6926806
90	0xbd149e25	-0.03628363
91	0x3f254e7e	0.64572895
92	0x3b118724	0.0022205794
93	0x3f34fdf2	0.7069999
94	0xbd2faacd	-0.042887498
95	0x3f4a4e9f	0.79026216
96	0xbc37f902	-0.011228802
97	0x3f5e23cd	0.8677338
98	0x3aed6a19	0.0018113285
99	0xbf7e5595	-0.9934934
100	0xbc821578	-0.015879378
101	0xbc0b5c52	-0.008505898
102	0x3f2238ab	0.6336772
103	0xbb977786	-0.0046224026
104	0xbc6cbffa	-0.014450068
105	0xbc4df778	-0.012571208
106	0x3c0670cb	0.008205603
107	0xbc38c93c	-0.011278447
108	0xbd380e57	-0.04493555
109	0x3f42395e	0.75868785
110	0x3f303604	0.6883242
111	0x3bbf2c68	0.005834151
112	0x3f28f771	0.66002566
113	0x3f3951c3	0.72390383
114	0x3f42d81b	0.76111
115	0x3f39f378	0.7263713
116	0xbd46d359	-0.0485414
117	0xbd20007e	-0.03906297
118	0xbcb30de2	-0.021857206
119	0x3f47cd41	0.7804757
120	0x3b0d0a92	0.0021521193
121	0x3f33a978	0.70180464
122	0x3f377f1b	0.7167832
123	0x3f36247e	0.7114943
124	0x3ebb0fb8	0.3653543
125	0xbd4c836a	-0.049930014
126	0x3f3edae2	0.7455274
127	0x3f40d651	0.7532702
128	0x3f13bd7a	0.57710993
129	0x3f44e148	0.7690625
130	0xbc309ad5	-0.010779102
131	0x3f50fbd2	0.8163425
132	0x3f41a761	0.75646025
133	0x3bdb07b0	0.006684266
134	0xbd3fa0c2	-0.04678417
135	0x3f3b0d49	0.73067147
136	0xbd3872ce	-0.04503136
137	0xbcb72c60	-0.022360027
138	0x3f230e9a	0.63694155
139	0xbbe76c60	-0.00706248
140	0x3f3bfe89	0.73435265
141	0x3f458dbc	0.77169394
142	0x3c989274	0.018624522
143	0xbc80f578	-0.015742049
144	0x3f4d3986	0.801659
145	0x3c6bca43	0.014391485
146	0xbc3aadf6	-0.011394015
147	0x3c1f19a4	0.009710703
148	0xbcee6b53	-0.02910391
149	0x3af08102	0.0018348994
150	0x3f3c2633	0.7349579
151	0xbd2bc597	-0.041936483
152	0x3c1badf7	0.009501926
153	0x3f3a9004	0.72876
154	0x3d2dcb2c	0.042430088
155	0x3f2ac1b5	0.66701823
156	0x3afc5be5	0.0019253461
157	0xbc802b28	-0.015645579
158	0xbcb401e3	-0.021973556
159	0xbd003a37	-0.031305518
160	0xbcfa65a4	-0.030566044
161	0x3ce8b8fc	0.02840852
162	0x3f2186be	0.63096225
163	0xbd5594e3	-0.052143943
164	0xbc83fae7	-0.01611085
165	0x3b9ebf48	0.00484458
166	0x3f39e05c	0.7260797
167	0x3f4558dd	0.7708872
168	0xbd1cd5b8	-0.038289756
169	0x3f526644	0.82187295
170	0x3f1bd36a	0.6086947
171	0xbc80ac8f	-0.015707282
172	0x3f31142f	0.6917142
173	0x3f3f27c9	0.7467008
174	0x3f3363d5	0.70074207
175	0x3f34fb8e	0.7069634
176	0x3f37ffd3	0.7187473
177	0xbbd66533	-0.0065428256
178	0x3f2fdcb2	0.6869613
179	0x3f41c6c9	0.7569395
180	0xbcdb8fe2	-0.026802007
181	0xbc873127	-0.01650293
182	0x3b23d2dc	0.0024997508
183	0x3f25b7d9	0.64733654
184	0x3f425313	0.7590801
185	0x3f3ec4e5	0.7451919
186	0x3f574dc5	0.8410304
187	0xbd0611e3	-0.0327319
188	0xbd54aeae	-0.0519244
189	0x3f61a3c6	0.88140523
190	0x3f3e2412	0.7427379
191	0xbd30eeb0	-0.04319638
192	0xbc22a392	-0.0099266935
193	0xbc8b1a52	-0.016980324
194	0x3f4da752	0.80333436
195	0x3f3c1fce	0.7348603
196	0xbc6120ac	-0.0137407
197	0x3d7aae5a	0.06120143
198	0x3f258b8d	0.6466606
199	0x3f3d32a9	0.73905426
200	0x3f4ae6c2	0.7925836
201	0xbee84b5b	-0.45369992
202	0x3b93a9a5	0.004506307
203	0x3c213b50	0.009840801
204	0x3f2bf334	0.67167974
205	0xbd441ae3	-0.047877204
206	0x3f4af7dc	0.79284453
207	0x3f3fad63	0.7487394
208	0x3f40a87a	0.75257075
209	0x3f5017a3	0.81286067
210	0xbd3c0cb3	-0.04591055
211	0x3f36c5c1	0.713955
212	0x3f341679	0.7034679
213	0xbd34b329	-0.044116173
214	0xbbec6d97	-0.0072152126
215	0x3c4c3aa7	0.012465156
216	0xbd1aa369	-0.037753496
217	0x3f38eb01	0.7223359
218	0x3c37ad3d	0.011210737
219	0x3f4b2bcf	0.7936372
220	0x3f295575	0.6614602
221	0xbd08988c	-0.033348605
222	0x3f331bd5	0.69964343
223	0xbd0dc400	-0.03461075
224	0xbc6f648e	-0.014611376
225	0x3f43d9bd	0.7650412
226	0x3ca12c14	0.019674338
227	0xbcc8e6ed	-0.024524176
228	0xbcd01880	-0.025402308
229	0x3a99b205	0.0011726028
230	0x3c9fc8cc	0.019504927
231	0xbd409119	-0.047013376
232	0x3f30bf8e	0.6904229
233	0xbb558666	-0.0032581328
234	0x3f4885ea	0.78329337
235	0x3f1d828d	0.6152733
236	0xbd38e773	-0.045142602
237	0x3f4b191c	0.7933519
238	0xbc2ea327	-0.010659016
239	0x3f35ff14	0.71092343
240	0x3f1bc1a7	0.60842365
241	0x3f2ad767	0.6673493
242	0xbe81c05b	-0.25342068
243	0xbc33b75a	-0.010969007
244	0x3f3a3f6c	0.72753024
245	0x3f202755	0.62560016
246	0x3f37e8bd	0.71839505
247	0xbd42126f	-0.04738086
248	0x3c4f2cfc	0.012645002
249	0x3f3c8636	0.7364229
250	0xbce88d34	-0.028387643
251	0x3f49562d	0.7864712
252	0xbd3fb85c	-0.04680668
253	0xbc815329	-0.015786724
254	0x3f2b8106	0.6699375
255	0x3f466eef	0.7751302

fc1_advantages.weight f4 [256, 128]
0	0xbdce5f93	-0.10076823
1	0x3d5e231b	0.054232698
2	0x3bd4de6c	0.0064962413
3	0x3daea05d	0.085266806
4	0x3cda243d	0.026628608
5	0xbc943573	-0.018091893
6	0xbd6a3209	-0.057176623
7	0xbd405bb3	-0.04696245
8	0x3c8f57b7	0.01749788
9	0x3d95f824	0.0732272
10	0xbdab037e	-0.083502755
11	0x3d515880	0.05110979
12	0xbd09aa27	-0.033609536
13	0xbd9f8227	-0.077884965
14	0xbc12ce8c	-0.008960377
15	0xbdb1f3fc	-0.086891145
16	0xbdce5998	-0.100756824
17	0x3da1d537	0.07901996
18	0xbbb32e2b	-0.00546815
19	0xbd3a99b3	-0.045556735
20	0xbd70a772	-0.05875344
21	0xbc327609	-0.0108924
22	0x3c78de14	0.015189666
23	0xbd630d05	-0.05543234
24	0xbd853819	-0.065048404
25	0xbd86c5b1	-0.065806754
26	0xbca3f6d5	-0.02001516
27	0x3c1e7ff4	0.009674061
28	0x3d96dbee	0.07366167
29	0xbb3f52c6	-0.0029193624
30	0x3cea47e1	0.028598728
31	0xbd3c06b5	-0.045904834
32	0xbd8fe28a	-0.07025631
33	0xbdc09915	-0.09404198
34	0xbbb69236	-0.005571629
35	0x3d32f72c	0.043692753
36	0xbcf1d68a	-0.029521246
37	0xbc597990	-0.013273612
38	0x3d2508b6	0.04029151
39	0x3d11cc6a	0.035595335
40	0xbcae5c53	-0.021284258
41	0x3cd56dc2	0.026053313
42	0xbb7582f3	-0.0037462085
43	0xbd34d00f	-0.044143733
44	0xbaa44d7d	-0.00125353
45	0xbc4f9242	-0.012669148
46	0x3d108e4d	0.03529196
47	0x3c24a0c9	0.0100481
48	0xbd41f898	-0.047356218
49	0xbd088287	-0.033327606
50	0xbdac77a6	-0.08421259
51	0x3c9ae2ec	0.018907033
52	0xbd1fcecd	-0.03901558
53	0xbd82d082	-0.06387426
54	0x3cace6a1	0.021106066
55	0xbd3c048b	-0.04590277
56	0x3c86da66	0.016461562
57	0x3d4f1fed	0.050567556
58	0xbc3d9b6d	-0.011572701
59	0x3d8fec57	0.070275
60	0xbd9797dc	-0.07402012
61	0x3c249d9f	0.010047345
62	0xbd335a44	-0.043787256
63	0xbda7b3ff	-0.081886284
64	0xbd04c4c9	-0.03241423
65	0xbd859b92	-0.06523813
66	0xbc3b51e7	-0.011433101
67	0xbc935f2f	-0.017989723
68	0x3a4ff61e	0.00079330977
69	0x3d771b42	0.06032873
70	0xbdb1fe53	-0.086910866
71	0x3cb9107c	0.022590868
72	0xbd96b8a8	-0.07359439
73	0x3cedcec5	0.02902926
74	0xbda96646	-0.0827146
75	0xbd4ce34d	-0.05002146
76	0xbc0b5211	-0.008503453
77	0xbd1f4026	-0.038879536
78	0xbd904261	-0.07043911
79	0xbd8b3a93	-0.067982815
80	0xbd850dcc	-0.06496772
81	0xbc9b6ffe	-0.0189743
82	0xbcecb2c7	-0.028893841
83	0xbc3f2101	-0.011665584
84	0xbdae28ce	-0.085038766
85	0xbda62836	-0.081131384
86	0xbc61a656	-0.013772568
87	0xbdad4857	-0.08461063
88	0x3cbc3a3e	0.02297699
89	0x3d2ba2ce	0.04190331
90	0xbd6b6f87	-0.057479408
91	0x3c2a47ea	0.010393122
92	0x3d9d6b0b	0.076864325
93	0x3bcfb69b	0.006338907
94	0xbd7c5db2	-0.061612792
95	0x3d4a0ee5	0.04933061
96	0xbd91179b	-0.070845805
97	0xbc2eeef5	-0.010677089
98	0x3a1a04aa	0.0005875329
99	0xbd8cdbf4	-0.0687789
100	0x3a3e42c4	0.00072578737
101	0x3ca812c8	0.020516768
102	0x3c5f7aff	0.013640164
103	0xbd99fa65	-0.07518462
104	0xbd8186f0	-0.063245654
105	0x3d744f8d	0.059646178
106	0x3d4f3ad0	0.050593197
107	0xbcfb33f5	-0.030664423
108	0x3bc3b538	0.0059725307
109	0x3be0147b	0.006838379
110	0x3c3ab060	0.01139459
111	0x3bd89c76	0.0066104485
112	0x3d484ce3	0.04890145
113	0xbd9944f6	-0.074838564
114	0xbdd1370d	-0.10215578
115	0x3c94a69a	0.018145848
116	0xbd650871	-0.055916253
117	0x3ca6e26a	0.020371635
118	0xbd65bd9e	-0.056089036
119	0x3c8f9a6a	0.017529685
120	0xbcf5b47a	-0.029993284
121	0xbd952493	-0.072823666
122	0x3d4877f2	0.048942514
123	0xbcd90ad5	-0.026494423
124	0x3c932608	0.01796247
125	0xbcc803e5	-0.02441592
126	0xbc171b78	-0.009222858
127	0x3c914bcf	0.017736344
128	0xbc04de3d	-0.008109626
129	0xbcfe1e82	-0.031020407
130	0x3d2cac41	0.04215646
131	0xbd442d4a	-0.047894754
132	0xbd86bc97	-0.065789394
133	0xbd77c83a	-0.060493685
134	0xbd25b9b6	-0.04046031
135	0x3d540bdf	0.051769134
136	0xbdb73a44	-0.0894666
137	0xbaae5d83	-0.0013303015
138	0x3d073831	0.033012573
139	0xbd8e3210	-0.069431424
140	0x3d779978	0.060449094
141	0xbd30d6c4	-0.043173566
142	0x3d27b95b	0.040948253
143	0x3d9fb5ea	0.07798369
144	0xbdad3698	-0.084576786
145	0xbddc0023	-0.107422136
146	0xbdb68559	-0.08912153
147	0xbd40c413	-0.04706199
148	0x3d32c9d1	0.0436495
149	0xbd3903d8	-0.04516968
150	0x3d65ccb8	0.05610344
151	0x3b1c42f7	0.0023843625
152	0x3d2eb725	0.04265513
153	0xbca8db78	-0.020612463
154	0xbb97f16a	-0.004636933
155	0xbc8cb7f9	-0.017177569
156	0x3cd5e480	0.026109934
157	0xbd264be6	-0.040599726
158	0x3d0cf5a3	0.034413945
159	0x3db799fb	0.08964916
160	0xbd76bc44	-0.060238138
161	0xbdc4e545	-0.09614042
162	0xbdca1877	-0.098679475
163	0x3c18a9ca	0.009317825
164	0xbd3d89c7	-0.046273973
165	0xbc8f2886	-0.017475378
166	0x3d979c66	0.074028775
167	0xbcd5bb59	-0.02609031
168	0xbd1c4e09	-0.038160358
169	0x3d5a4e8c	0.053297564
170	0xbd427a37	-0.047479834
171	0xbd19d581	-0.03755713
172	0x3d6becb4	0.057598785
173	0xbcf6c918	-0.030125186
174	0x3a877845	0.0010335526
175	0x3ca8e099	0.020614909
176	0xbd29acc2	-0.04142452
177	0xbd4da696	-0.050207697
178	0x3d90b951	0.07066596
179	0xbd8f9e56	-0.07012622
180	0x3ce089da	0.027409483
181	0x3bb5b6e0	0.005545482
182	0xbcca3c14	-0.02468685
183	0xbdc7f82a	-0.097641304
184	0xbdaae59a	-0.08344574
185	0xbd60c43e	-0.05487465
186	0x3d24dc46	0.04024913
187	0xbcf3ca1e	-0.029759463
188	0x3d7522ab	0.059847515
189	0x3d572391	0.052524153
190	0x3d4c5960	0.049889922
191	0x3d754786	0.059882663
192	0xbcc479d6	-0.023983877
193	0x3d77c582	0.060491093
194	0x3d2f68d0	0.042824566
195	0xbd66b7e5	-0.05632772
196	0x3d899d0e	0.06719409
197	0xbd4552e4	-0.048174754
198	0xbd57d857	-0.052696552
199	0x3d9e57fa	0.07731624
200	0x3d0aec69	0.033916865
201	0xbda7fbe9	-0.08202345
202	0x3b0260f1	0.0019894207
203	0xbd3ab2d5	-0.045580704
204	0xbda1e1f3	-0.079044245
205	0xbb2ec20b	-0.0026665952
206	0x3d09a162	0.033601172
207	0xbd1dc5fc	-0.03851889
208	0xbd153202	-0.036424644
209	0xbd215a34	-0.039392665
210	0x3ccd3a1d	0.025052125
211	0x3cd258b2	0.025677059
212	0x3de51580	0.111857414
213	0x3c45965a	0.012059772
214	0xbccad266	-0.024758529
215	0xbd0c408a	-0.034241237
216	0xbd5eb8f5	-0.054375608
217	0xbd972d4c	-0.073816866
218	0xbdc255c3	-0.09489014
219	0xbd673de5	-0.05645551
220	0x3cc14d88	0.02359654
221	0x3c0e1428	0.008671798
222	0xbcb42dc4	-0.021994479
223	0xbc9bbde2	-0.019011442
224	0xbd2024e4	-0.03909768
225	0x3d60ee9d	0.05491506
226	0xbd8db87a	-0.06919952
227	0x3d9ff73d	0.07810829
228	0x3d60edf8	0.054914445
229	0xbd932682	-0.07185079
230	0xbd90289b	-0.07038995
231	0x3d4c54f1	0.049885694
232	0xbca97798	-0.02068691
233	0x3ab0df6f	0.0013494323
234	0x3d9142d9	0.07092828
235	0xbdc34d60	-0.095362425
236	0xbd8e86eb	-0.06959327
237	0x3c03d671	0.008046732
238	0xbd4b2af3	-0.049601506
239	0xbdd4057c	-0.103526086
240	0x3cfd37ba	0.030910362
241	0x3d976e27	0.07394057
242	0xbde105d8	-0.10987443
243	0x3b93d554	0.0045115147
244	0x3b0515ef	0.0020307263
245	0xbcf8372b	-0.030299744
246	0x3c04be2e	0.008101983
247	0xbb30688b	-0.0026917781
248	0xbca3ec0c	-0.020010017
249	0x3cbbd0e3	0.022926753
250	0x3c291a67	0.010321236
251	0xbdec89cd	-0.11549721
252	0x3d5a7672	0.053335615
253	0x3c5927f5	0.013254155
254	0xbbd5dfa6	-0.006526905
255	0xbd2e2a3b	-0.042520743

fc1_advantages.bias f4 [256]
0	0xbda36fb8	-0.07980293
1	0xbc885e93	-0.016646659
2	0x3bc34513	0.005959162
3	0x3e724f63	0.23663096
4	0x3e13710e	0.14398596
5	0x3e4ea5ef	0.20180486
6	0xbd9296cb	-0.07157668
7	0x3e365179	0.17804517
8	0xbdaded75	-0.08492557
9	0x3d9409fd	0.072284676
10	0x3df8a60a	0.121410444
11	0xbd3f8b6f	-0.046763834
12	0x3e762e7d	0.24041171
13	0x3dabe5b3	0.08393421
14	0x3d7d6a89	0.061869178
15	0xbd4535f4	-0.048147157
16	0xbe788ee3	-0.24273257
17	0xbac519d6	-0.0015037607
18	0x3ea14a83	0.3150216
19	0xbd5c792e	-0.053826503
20	0x3c429751	0.011876897
21	0x3d6f8fdf	0.058486816
22	0x3d76131a	0.06007681
23	0x3c4180ba	0.011810476
24	0x3d3a2d8d	0.045453597
25	0x3cafbfa4	0.021453686
26	0x3e1c2d45	0.15251644
27	0x3dab735a	0.08371611
28	0x3d732182	0.059358127
29	0x3d806632	0.06269492
30	0x3ceb9b29	0.02876051
31	0xbcfea8d1	-0.031086357
32	0x3cd62558	0.026140854
33	0xbdbf4b14	-0.09340492
34	0x3e6f5eb1	0.23375966
35	0xbd9b0453	-0.07569184
36	0xbd6776e2	-0.05650986
37	0x3b4646a5	0.003025451
38	0x3c8ab777	0.016933186
39	0x3d2ce676	0.042211972
40	0xbd9259df	-0.07146048
41	0x3d6072f1	0.054797117
42	0x3e50787a	0.20358458
43	0x3d0ad7c5	0.03389718
44	0xbdd3247f	-0.103096955
45	0x3de04ec8	0.10952526
46	0x3e17963a	0.148034
47	0xbd82b74b	-0.063826166
48	0xbcea0dec	-0.028571092
49	0x3e6e0654	0.23244601
50	0x3e0339a7	0.12814961
51	0x3e63d723	0.22250037
52	0xbd37426a	-0.04474107
53	0xbbc0056e	-0.0058600223
54	0x3dca19fa	0.09868236
55	0xbd351caf	-0.044216808
56	0xbd930756	-0.071791336
57	0xbd35ae7e	-0.04435586
58	0x3e09a346	0.1344119
59	0xbc698ce2	-0.0142547805
60	0x3c4a4239	0.01234489
61	0xbdae6e84	-0.08517173
62	0x3bc4aef7	0.0060023027
63	0xbcf2da69	-0.029645162
64	0xbd096345	-0.033541936
65	0x3b40cfea	0.0029420801
66	0x3e03d283	0.12873273
67	0xbab9510c	-0.0014138534
68	0x3e65e40f	0.22450279
69	0xbdb88f83	-0.09011748
70	0xbc02f76e	-0.007993562
71	0xbb08812c	-0.0020828946
72	0x3dde2126	0.10846166
73	0xbca25297	-0.019814773
74	0xbdcaa33d	-0.098944165
75	0x3db80469	0.08985216
76	0x3e2882db	0.16456167
77	0x3cc0876a	0.02350207
78	0x3d5aeaa2	0.05344642
79	0xbc3bdccb	-0.011466215
80	0x3c8ecfa6	0.017432999
81	0x3e32663f	0.17421816
82	0x3dd3b78a	0.10337742
83	0x3de83f32	0.113401785
84	0x3d47778a	0.048697986
85	0xbc914301	-0.017732145
86	0x3e396e8a	0.18108574
87	0x3d8a3dcc	0.06750068
88	0xbd8aef46	-0.06783919
89	0x3da06753	0.078322075
90	0x3d5ad99c	0.053430185
91	0x3cc93580	0.024561644
92	0x3e1dfdae	0.15428802
93	0x3e0b0fb2	0.13580206
94	0x3e944699	0.28960112
95	0x3dc0aa9a	0.0940754
96	0xbde40f71	-0.11135758
97	0x3cdbde21	0.026839318
98	0x3e3a064f	0.18166469
99	0x3db6a97f	0.089190476
100	0x3dac2dff	0.084072106
101	0xbd22c7b1	-0.03974122
102	0xbca3f76e	-0.020015445
103	0x3c6a88ff	0.014314889
104	0x3e65c717	0.22439228
105	0x3d80772f	0.062727325
106	0x3d54e7bc	0.05197881
107	0x3dc31562	0.09525563
108	0xbaeb1098	-0.0017934022
109	0xbcdea96c	-0.027180396
110	0xbdc985fa	-0.09840007
111	0xbd1acd77	-0.037793603
112	0xbc5d9161	-0.013523431
113	0x3e78cffb	0.24298088
114	0x3c2905b5	0.010316302
115	0xbb6a457a	-0.0035746978
116	0x3d850458	0.06494969
117	0x3e066488	0.13124287
118	0xbd9cf916	-0.07664697
119	0x3d38661b	0.04501925
120	0x3df3b92c	0.11900553
121	0xbda52ac7	-0.080648
122	0xbca8e675	-0.020617703
123	0x3ce2cb64	0.027684875
124	0xbd93bbb8	-0.07213539
125	0xbd999a1f	-0.075000994
126	0xbce15c79	-0.027509915
127	0x3e28390e	0.16428015
128	0x3e0571ab	0.13031642
129	0x3c53bd26	0.0129235145
130	0x3dc16e51	0.09444869
131	0x3e4b7b34	0.19871217
132	0xbd6c766c	-0.057730123
133	0xbdf23d0a	-0.118280485
134	0x3db14b10	0.08656895
135	0xbdc13c47	-0.09435325
136	0x3ca6f8f9	0.020382391
137	0x3cd6b8f5	0.026211241
138	0xbcdd205b	-0.026992967
139	0x3b905e33	0.0044057607
140	0x3e426a9c	0.18985981
141	0xbd4d6720	-0.050147176
142	0xbcce4a76	-0.02518199
143	0x3d4646a9	0.04840723
144	0x3d7c666b	0.06162111
145	0x3d8e5218	0.06949252
146	0x3d42052c	0.047368214
147	0xbd318725	-0.043341774
148	0xbdbe05f1	-0.09278477
149	0xbd5a117a	-0.053239323
150	0x3cdd6e91	0.027030261
151	0xbca9cc88	-0.02072741
152	0xbdc40784	-0.09571746
153	0x3c989852	0.01862732
154	0x3d92d9e7	0.07170468
155	0xbdf36f6f	-0.11886489
156	0x3e1397de	0.14413401
157	0xbd65f5ef	-0.056142744
158	0x3d8e4f4b	0.06948718
159	0x3cb4dd41	0.022078158
160	0x3baba266	0.0052378653
161	0xbd4f59fc	-0.050622925
162	0x3df67b2f	0.12035214
163	0x3d21e535	0.03952523
164	0xbd8772dd	-0.06613705
165	0x3cc1c21c	0.023652129
166	0x3e4e5372	0.2014902
167	0xbdcd1f26	-0.10015707
168	0xb98cc855	-0.0002685214
169	0xbd8ece8a	-0.06972988
170	0xbd912122	-0.07086398
171	0xbd4d7436	-0.050159656
172	0xbdc49e66	-0.096005246
173	0x3dd94918	0.10609645
174	0x3c86e1d5	0.016465107
175	0xbd6415e3	-0.055684935
176	0x3dc1083b	0.09425398
177	0xbd419080	-0.047256947
178	0xbdc3dba2	-0.09563376
179	0x3d23c5c5	0.03998353
180	0x3e51d185	0.20490082
181	0xbd8cbaad	-0.06871543
182	0xbd62ec31	-0.05540103
183	0x3d449465	0.047993083
184	0x3ce96f5d	0.028495485
185	0x3daf170a	0.08549316
186	0x3c0ef842	0.008726181
187	0xbda5b054	-0.080902725
188	0x3e867104	0.262581
189	0xbd2b1da8	-0.04177633
190	0x3cd4b4cd	0.025965119
191	0xbd6e5ce5	-0.05819406
192	0x3d9009a3	0.07033088
193	0xbc3147a9	-0.010820308
194	0xbdba0643	-0.090832256
195	0xbd438d83	-0.047742378
196	0xbc7e8a02	-0.015535833
197	0x3b95c060	0.004570052
198	0xbc0c06e9	-0.008546569
199	0x3ddc8101	0.10766793
200	0x3d48aa7d	0.048990715
201	0x3e13c366	0.14430007
202	0xbd94e088	-0.072693884
203	0xbc82e8eb	-0.015980205
204	0xbd8619d7	-0.06547897
205	0x3da0a778	0.07844442
206	0xbc16941b	-0.0091905845
207	0xbd8a2d46	-0.067469165
208	0xbcfe607e	-0.03105187
209	0x3caa1d75	0.020766
210	0x3d750f43	0.059829008
211	0xbd5e93dc	-0.05434023
212	0x3e02d42a	0.12776247
213	0xbd81d838	-0.063400686
214	0xbd8b9df3	-0.06817236
215	0x3da1f7f3	0.07908621
216	0x3d70affb	0.058761578
217	0xbdd2c8d3	-0.102922104
218	0xbdac7e1c	-0.08422491
219	0xbd93ec0f	-0.07222759
220	0x3d380c6e	0.04493373
221	0x3c6545a0	0.013993651
222	0x3d1886f2	0.03723807
223	0xbd72aee7	-0.05924883
224	0x3ca2b874	0.019863345
225	0xbd28a980	-0.041177273
226	0x3d6953dc	0.05696474
227	0x3e5a629f	0.21326683
228	0xbd9ce6bf	-0.07661199
229	0x3d926883	0.0714884
230	0xbd0f2a01	-0.034952167
231	0x3bcfaffa	0.0063381167
232	0xbd3dad67	-0.046307947
233	0xbd29b113	-0.041428637
234	0xbc5395c2	-0.012914123
235	0xbdefd80c	-0.117111295
236	0x3d2c4293	0.042055678
237	0x3d81d90d	0.06340227
238	0xbdd72adb	-0.10506221
239	0x3c781396	0.015141388
240	0x3c0ee441	0.008721412
241	0x3d12a2a6	0.035799645
242	0xbd54eae9	-0.05198184
243	0x3dec44cb	0.11536559
244	0x3b02ddb0	0.0019968562
245	0xbd9a4fb3	-0.07534733
246	0xbdb72495	-0.08942524
247	0x3e703e93	0.2346137
248	0xbd083eb1	-0.033262912
249	0xbc3222f5	-0.010872592
250	0xbbe20c53	-0.006898442
251	0xbdefb599	-0.11704559
252	0x3d802a15	0.062580265
253	0xbd0b55ad	-0.034017254
254	0x3e0ffac3	0.14060502
255	0xbc76d776	-0.015066018
